pytorch-chatbot/data.pth (torch, 10737 bytes, 6 tensors)

l1.weight f4 [8, 152]
0.10911858 0.4946514 0.30102202 0.2658578 0.5698527 0.2046373 0.29476944 0.4302585
-0.43085608 -0.2356634 0.29648927 -0.16238809 -0.48418078 -0.24097684 0.77189755 -0.25067452
-0.4557748 -0.1028499 -0.49150452 0.27996737 -0.22908497 -0.3655975 0.15194233 0.29280517
0.31627664 0.4861922 -0.4306069 -0.1893868 0.63967633 -0.03961359 0.5936091 1.0010953
0.31405878 -0.29547787 0.3507625 0.3972023 0.43408692 0.19537833 0.051973302 0.7839351
0.6119834 0.4409714 0.3805679 0.6392954 -0.17367698 0.035782833 0.019461732 -0.294591
0.40228695 0.8209736 -0.45710707 -0.31147218 0.41282472 0.19477342 0.6554078 0.27255958
0.62051827 0.37946963 0.21194106 -0.22850804 -0.5198159 0.17627662 0.07618659 -0.5221872
-0.118061796 -0.5218143 -0.52261406 -0.39658847 0.15723465 0.16448177 0.19062334 0.48854285
0.644009 -0.07763357 0.4437142 0.68887985 -0.19604912 -0.31309098 0.7196011 0.28442198
0.1524879 -0.10968906 0.038672727 0.19383392 -0.52205724 -0.35679913 0.57394266 0.33099654
-0.67325807 0.5540041 -0.2970925 0.33774346 0.8834403 0.073158056 0.41274253 0.37548262
0.645142 -0.15344957 0.20024285 0.4139023 0.08603933 0.5779759 0.29617384 -0.24774013
0.07492227 0.968978 0.6599719 0.14995538 0.47939345 0.1816299 -0.2353422 0.37000686
0.49409735 0.31067276 0.5926711 0.68097526 0.38708264 0.34215564 0.6018507 0.32142103
-0.18502095 0.28341696 0.68833727 -0.06505609 0.44034442 -0.42637503 -0.28848067 0.6807881
0.23193112 0.61804456 0.39691892 0.7816032 -0.20490825 0.3579523 0.21691981 -0.44722944
-0.5150669 0.27345616 0.14232755 -0.0526809 -0.57806885 0.5067505 0.31724122 -0.27669302
0.7547748 0.13635074 0.4971469 0.5074362 0.42426947 0.09108006 -0.47239286 -0.35322303
-0.3449781 0.15990889 0.09513258 -0.5809246 -0.26340395 0.5355143 0.6760227 -0.049939774
0.2915726 0.10115198 -0.2502319 -0.4333829 -0.34926698 -0.22358342 0.18296012 -0.27774745
-0.545464 -0.6537576 -0.47308868 -0.5714898 0.4152258 -0.30071917 -0.34413582 0.066025525
0.25243565 0.6130342 -0.0743178 -0.67189467 -0.2553534 -0.1583185 -0.24204648 -0.4755006
0.4367375 0.33307913 -0.3918363 0.5964449 0.51000214 -0.11991324 -0.23925814 1.0109406
0.66899663 0.09054603 -0.34591335 0.6729421 -0.47108355 0.55935514 -0.31143793 -0.74497944
0.58459127 0.22720075 -0.3787029 0.25454563 -0.381708 0.2252026 -0.37351894 -0.0069790483
-0.42267865 -0.50946885 0.0127271 0.35597086 -0.53294873 -0.025140185 -0.11388109 0.5458937
0.5030596 0.52488285 0.6225708 -0.53806186 0.62602365 0.9525512 -0.07729896 0.004595794
0.57641315 0.23965341 -0.7585094 0.9030162 0.31816462 0.21819128 0.523982 -0.31816527
-0.48814026 -0.36339208 -0.28331414 0.47892037 0.8243092 0.5443136 0.46855208 0.21110792
-0.57330394 0.020377757 0.33076707 0.6437668 -0.598824 0.24939384 0.49812174 0.553824
0.2754127 -0.39151713 0.320091 -0.5382027 0.121846914 -0.16452754 0.7000609 -0.48237026
00000000: 9079 df3d f342 fd3e 8f1f 9a3e 831e 883e
00000010: dee1 113f 718c 513e 05ec 963e d84a dc3e
00000020: 2b99 dcbe bf51 71be 71cd 973e 1049 26be
00000030: 8be6 f7be a2c2 76be 149b 453f 6958 80be
00000040: 515b e9be f8a2 d2bd 7ba6 fbbe e257 8f3e
00000050: 4095 6abe 982f bbbe c596 1b3e 8fea 953e
00000060: 03ef a13e 2fee f83e 8278 dcbe 9dee 41be
00000070: d4c1 233f dc41 22bd c4f6 173f e423 803f
00000080: 50cc a03e e048 97be 2497 b33e 1a5e cb3e
00000090: a440 de3e 4211 483e f5e1 543d f9af 483f
000000a0: f2aa 1c3f 01c7 e13e ccd9 c23e dda8 233f
000000b0: 61d8 31be 0591 123d 366e 9f3c a2d4 96be
000000c0: 8ef8 cd3e 532b 523f f009 eabe 4879 9fbe
000000d0: c35d d33e af72 473e cec8 273f ee8c 8b3e
000000e0: 49da 1e3f d849 c23e 1407 593e 03fe 69be
000000f0: a812 05bf dc81 343e b707 9c3d 0fae 05bf
00000100: 62ca f1bd 9f95 05bf 09ca 05bf a50d cbbe
00000110: 1f02 213e e96d 283e c432 433e 4a22 fa3e
00000120: c6dd 243f 59fe 9ebd 822e e33e 6e5a 303f
00000130: 1ac1 48be 764d a0be c737 383f c29f 913e
00000140: ca25 1c3e a8a4 e0bd 4b67 1e3d 667c 463e
00000150: 8ba5 05bf 60ae b6be e8ed 123f 6178 a93e
00000160: a45a 2cbf 36d3 0d3f 821c 98be b6ec ac3e
00000170: 2529 623f e4d3 953d fd52 d33e 423f c03e
00000180: 0728 253f e221 1dbe 760c 4d3e 01eb d33e
00000190: 6335 b03d 3bf6 133f 19a4 973e 97af 7dbe
000001a0: d970 993d f10e 783f ebf3 283f e78d 193e
000001b0: 0f73 f53e 30fd 393e 8cfd 70be 8a71 bd3e
000001c0: 54fa fc3e 8010 9f3e 4bb9 173f 6554 2e3f
000001d0: b22f c63e 062f af3e e312 1a3f 4c91 a43e
000001e0: 2276 3dbe 071c 913e df36 303f 213c 85bd
000001f0: d374 e13e d44d dabe bdb3 93be 2148 2e3f
00000200: 5a7f 6d3e 2b38 1e3f f538 cb3e 2617 483f
00000210: 78d3 51be 8645 b73e 3a20 5e3e 42fb e4be
00000220: 6ddb 03bf 7202 8c3e 50be 113e edc7 57bd
00000230: 52fc 13bf 67ba 013f 716d a23e b5aa 8dbe
00000240: ec38 413f 879f 0b3e 0a8a fe3e 57e7 013f
00000250: d939 d93e 2f88 ba3d 7add f1be a6d9 b4be
00000260: f8a0 b0be 28bf 233e dfd4 c23d 79b7 14bf
00000270: e2dc 86be 7717 093f d30f 2d3f a68d 4cbd
00000280: 0149 953e c528 cf3d 651e 80be 5de4 ddbe
00000290: 1fd3 b2be 0df3 64be e659 3b3e ea34 8ebe
000002a0: 87a3 0bbf a85c 27bf ae38 f2be 284d 12bf
000002b0: 7a98 d43e ddf7 99be 9232 b0be 6438 873d
000002c0: 3f3f 813e cfef 1c3f ee33 98bd 4a01 2cbf
000002d0: aebd 82be 3f1e 22be 08db 77be d174 f3be
000002e0: 0f9c df3e 5989 aa3e c49e c8be 9db0 183f
000002f0: 808f 023f 1395 f5bd 1600 75be 8066 813f
00000300: 5d43 2b3f 3270 b93d 8e1b b1be ef45 2c3f
00000310: dd31 f1be e631 0f3f cb74 9fbe f9b6 3ebf
00000320: c6a7 153f 50a7 683e 59e5 c1be ce53 823e
00000330: 3b6f c3be 839b 663e e03d bfbe 80b0 e4bb
00000340: 5669 d8be 8d6c 02bf 5485 503c d041 b63e
00000350: 546f 08bf caf2 cdbc 7d3a e9bd b1bf 0b3f
00000360: 84c8 003f b95e 063f cd60 1f3f 6cbe 09bf
00000370: 1643 203f 65da 733f eb4e 9ebd 5098 963b
00000380: d08f 133f b467 753e ac2d 42bf 122c 673f
00000390: 79e6 a23e 896d 5f3e af23 063f 8fe6 a2be
000003a0: 85ed f9be 870e babe 8d0e 91be 0d35 f53e
000003b0: ed05 533f 2358 0b3f 0fe6 ef3e ad2c 583e
000003c0: 0cc4 12bf 41ef a63c 4d5a a93e e7cd 243f
000003d0: 884c 19bf 1961 7f3e d009 ff3e 69c7 0d3f
000003e0: e502 8d3e ef74 c8be f8e2 a33e a7c7 09bf
000003f0: e08a f93d e879 28be 3137 333f 3cf9 f6be

l1.bias f4 [8]
0.51999456 0.53160375 0.4492564 0.6048515 0.45075804 0.64054817 0.63989437 0.8201754
00000000: 5d1e 053f 2f17 083f ef04 e63e 8cd7 1a3f
00000010: c2c9 e63e f7fa 233f 1ed0 233f 04f7 513f

l2.weight f4 [8, 8]
-0.45212492 -1.1715004 1.642829 0.36068282 1.6941205 0.2792225 -0.41247004 0.55677176
-0.20334657 -0.26286632 -0.18248974 0.030162692 0.065956354 0.15469387 -0.26707295 -0.31985268
1.7204627 1.7891163 0.74841386 -0.17941828 -0.7160246 -1.6297411 -0.6554636 1.2858056
-0.9069576 1.9787104 0.11954503 1.5547888 1.2861148 1.0095705 0.46914166 0.17715205
1.6220287 -1.2813327 1.3358624 0.251253 0.15326333 0.48959184 -0.7764938 0.85859704
0.6816116 0.63851565 -0.20848145 -1.0403892 0.5817419 1.179262 0.13837712 -0.16264354
1.3645732 0.030556958 -1.3536668 -1.5612626 1.1771332 0.7736813 0.5146021 0.6846538
0.35491678 -0.23320743 -0.56779236 1.4127619 -1.426445 0.62242204 1.7293192 0.93004227
00000000: eb7c e7be baf3 95bf 3848 d23f 6bab b83e
00000010: f1d8 d83f 40f6 8e3e 462f d3be 9888 0e3f
00000020: 153a 50be 6a96 86be 97de 3abe c017 f73c
00000030: 2014 873d 1268 1e3e c9bd 88be bbc3 a3be
00000040: 1f38 dc3f c301 e53f 0d98 3f3f 6db9 37be
00000050: 634d 37bf 5b9b d0bf 76cc 27bf 4795 a43f
00000060: 602e 68bf 6246 fd3f 06d4 f43d 5203 c73f
00000070: 699f a43f 9b39 813f 5633 f03e 5967 353e
00000080: a39e cf3f b602 a4bf 8afd aa3f 3ca4 803e
00000090: 10f1 1c3e c8ab fa3e 4cc8 46bf 04cd 5b3f
000000a0: 197e 2e3f c375 233f 297c 55be 792b 85bf
000000b0: 0aed 143f 0ff2 963f bbb2 0d3e 078c 26be
000000c0: 56aa ae3f 9652 fa3c f444 adbf 74d7 c7bf
000000d0: 4dac 963f fa0f 463f f7bc 033f 7945 2f3f
000000e0: a7b7 b53e eecd 6ebe d75a 11bf 62d5 b43f
000000f0: c095 b6bf 0d57 1f3f 555a dd3f 4017 6e3f

l2.bias f4 [8]
0.77064854 -0.16305153 0.4811224 0.15364602 -0.34860373 0.7603107 0.34774223 0.63785994
00000000: 3949 453f fbf6 26be ad55 f63e 6255 1d3e
00000010: 307c b2be b9a3 423f 450b b23e ca4a 233f

l3.weight f4 [15, 8]
0.10742426 0.09234923 -1.7630414 0.21742864 -0.08653779 -0.7164253 0.0066525424 0.4611488
0.8972379 0.18889162 -1.1043605 0.17696254 0.68011034 -1.2240069 -0.27999833 -1.0950545
-2.3941479 0.3481479 0.44847628 0.023636518 -0.31923118 -0.50079125 -0.06278528 0.3190856
-0.34131336 -0.13858655 0.71141344 -2.2662194 0.27277416 0.06407336 0.05875227 -0.08228083
-1.6921829 -0.1684036 0.82920915 -0.31438267 -0.46444222 0.33314195 0.5448408 -1.406864
0.89789706 0.21081892 -1.8169273 -0.3258719 -2.8365574 1.2088948 0.8112373 -0.5531779
-0.012647381 0.12097359 0.6051747 0.46763507 -1.7517264 -2.546057 -1.3824105 0.6598168
-1.9835252 -0.089726925 -1.7442913 1.1542546 -1.6703657 -0.759757 -1.1821833 0.23015215
0.2455673 -0.005070001 0.504664 -1.3156393 0.31293282 -1.9099994 -1.2154514 0.6506783
-0.18393227 -0.2310134 0.62646943 0.26394007 0.0113236215 -0.65604115 -0.5085525 -0.95204645
0.12900017 0.22939238 -0.29852995 -0.30474666 -0.10282074 0.5684654 0.73032486 -1.7035345
0.895498 -0.100088656 0.68076766 -1.2901871 0.53941137 -1.4916939 -0.008837392 -2.0402014
-1.595234 0.040048778 -0.79634154 -1.3676854 0.2072528 0.84544855 0.7429009 0.10877998
-0.9908184 -0.34920323 -1.9062595 -0.16349758 -1.1817768 0.5284428 0.20881872 0.86010075
0.7137857 -0.09647101 -1.522618 0.5958943 -0.16075964 0.965899 -1.5372068 -1.910076
00000000: 4001 dc3d 9821 bd3d 57ab e1bf 9da5 5e3e
00000010: ba3a b1bd a667 37bf 92fd d93b b21b ec3e
00000020: 62b1 653f ce6c 413e af5b 8dbf ab35 353e
00000030: b61b 2e3f 42ac 9cbf f15b 8fbe bf2a 8cbf
00000040: b839 19c0 7140 b23e af9e e53e 5fa1 c13c
00000050: 4572 a3be db33 00bf 9295 80bd 305f a33e
00000060: a0c0 aebe a2e9 0dbe 311f 363f bd09 11c0
00000070: 0ea9 8b3e e538 833d 38a6 703d da82 a8bd
00000080: 7399 d8bf fe71 2cbe 0d47 543f c4f6 a0be
00000090: 5fcb edbe 9591 aa3e b07a 0b3f 1f14 b4bf
000000a0: 95dc 653f eae0 573e 1391 e8bf afd8 a6be
000000b0: 288a 35c0 11bd 9a3f 3fad 4f3f 119d 0dbf
000000c0: f636 4fbc 00c1 f73d bbec 1a3f dd6d ef3e
000000d0: 9238 e0bf 99f2 22c0 d4f2 b0bf c1e9 283f
000000e0: 27e4 fdbf c0c2 b7bd f044 dfbf 9dbe 933f
000000f0: 8bce d5bf 6f7f 42bf c851 97bf 01ad 6b3e
00000100: ff75 7b3e 4022 a6bb a931 013f de66 a8bf
00000110: bb38 a03e dc7a f4bf e993 9bbf da92 263f
00000120: be58 3cbe c78e 6cbe 4d60 203f 2723 873e
00000130: b686 393c 50f2 27bf 7f30 02bf 51b9 73bf
00000140: 9f18 043e d6e5 6a3e ebd8 98be c107 9cbe
00000150: ae93 d2bd f386 113f 92f6 3a3f 6b0d dabf
00000160: 5b3f 653f 48fb ccbd ca46 2e3f da24 a5bf
00000170: dd16 0a3f d3ef bebf b5ca 10bc a992 02c0
00000180: a130 ccbf 300a 243d 0add 4bbf 5110 afbf
00000190: 143a 543e 516f 583f c12e 3e3f 0ac8 de3d
000001a0: 46a6 7dbf c4ca b2be 5000 f4bf e96b 27be
000001b0: 7644 97bf 0748 073f 93d4 553e 902f 5c3f
000001c0: a9ba 363f 9892 c5bd 26e5 c2bf 878c 183f
000001d0: 2d9e 24be 2845 773f 31c3 c4bf 5f7d f4bf

l3.bias f4 [15]
0.05784173 -0.13755207 -0.2820819 -0.041031178 -0.34155852 0.7324639 -0.059186455 -0.06630262
-0.23228003 -0.23800991 -0.21700616 -0.2402231 -0.39610976 0.35856056 0.18423201
00000000: 73eb 6c3d 73da 0cbe 0a6d 90be 4f10 28bd
00000010: c2e0 aebe c182 3b3f 7f6d 72bd abc9 87bd
00000020: d1da 6dbe dfb8 73be dd36 5ebe 0bfd 75be
00000030: e6ce cabe 4095 b73e 51a7 3c3e
